hw1/model.npy (npy, 808 bytes, 1 tensors)

array f8 [91]
0	0xbfbe123a5630fdca	-0.11746563534051471
1	0xc008578236ae82bd	-3.0427288314825476
2	0x3ffeba0599ecd22a	1.9204154980371961
3	0xbfe9cc0479f57fa4	-0.8061544782649332
4	0xbfdeff1892da985b	-0.4843198236579888
5	0x3fddb897e48d0325	0.46439168280999105
6	0xbfb9fc02917eb06d	-0.101501617928706
7	0xc00b304bf8541e8b	-3.398582401339643
8	0xbff006230ca724e3	-1.0014982694868244
9	0x3fbc26fb93e2875b	0.10996982918234492
10	0x3fdf03ca0a734312	0.48460627575427495
11	0xc00a2737da81b41a	-3.269149500926244
12	0x3fb5bf29d9227988	0.08494817305697755
13	0xbfe07879ff8dd248	-0.5147066108025422
14	0xbfe07850999c33bd	-0.514686870593884
15	0x3ffe48bdcbd9f194	1.892759128851229
16	0x3feef26a357ae351	0.96709165997809
17	0x3ffc5724a84ee7bc	1.7712751936473827
18	0xbfaa1a09a6b71853	-0.050979901886919386
19	0x3fc25eba21f3fa34	0.14351584108222115
20	0xbf46b8158655ffee	-0.0006933312512700221
21	0x3ffb30020de45572	1.6992207091001004
22	0x400ab19ad4ef27e6	3.336721099422891
23	0xbff9804bb71fcf9c	-1.5938222077647657
24	0x3fe3d2b35220f09f	0.6194702724528901
25	0xbfedd76148eac548	-0.9325415062104776
26	0xbff1e734b50f88db	-1.1189467499430552
27	0x402fefd3cfeeb4cf	15.968412874115897
28	0x3fe4f0023e8e9b3e	0.6542979451959139
29	0xbfb327d179a419c5	-0.07482632846595212
30	0xbfcdd3d6a77cfb54	-0.23302729776511433
31	0xbff4e4e589dcb327	-1.305882967494833
32	0xbfe9cf17b3ff63b8	-0.8065298572138238
33	0xc008900b3332114d	-3.0703338622717298
34	0x3fe57e7e98435331	0.6716912244688499
35	0xc007a7cbe73f71da	-2.9569318834530636
36	0x400d225d6aca4dc0	3.6417797415722077
37	0xc033ce48cd269217	-19.80579836074511
38	0xbfc43d50e4bb4a0e	-0.15812121552023978
39	0x3fd78a0c9c7a14ee	0.3678008583159017
40	0x3fe23166d7b04872	0.5685304844539714
41	0x4004424a0137dffe	2.5323677153755844
42	0xbfda75f86be85f31	-0.4134503415857465
43	0x3fda501a3ae538f7	0.41113906623367263
44	0x3ff3f07cc49c14cf	1.2462127380434145
45	0xbfea66c875559df6	-0.825046757859069
46	0xc0036084173924ad	-2.422126943045973
47	0x3fd977160dcffc26	0.39789344166632856
48	0xbf81624ae2c4927b	-0.008488259358793151
49	0xbfcd96f00197a990	-0.2311687476897757
50	0xbfd625418259620d	-0.3460239193859998
51	0x3feec092f789d9b7	0.9610075793014435
52	0xc00609a4a372f08c	-2.7547085542156022
53	0x3fe3a221361ab5e5	0.6135412270284034
54	0x3fb6bcb66152c7c2	0.0888170230489598
55	0xc01109269c98023b	-4.258936354425312
56	0xc001ac8bde5ee23f	-2.2092511532503347
57	0x4046dc87a6451a81	45.72288969396778
58	0x3fdbc26a27e03dec	0.4337411298192524
59	0x3fd7a548347305bb	0.3694630157661682
60	0xbfd6bb606416752d	-0.3551865556163019
61	0xbfc4fc6dbbba8c10	-0.163953510918049
62	0x3ffdff52c119d555	1.8748347800258973
63	0xc01139fdd6db5307	-4.306632382523055
64	0xbffb7aa71cbb773d	-1.7174445268969543
65	0xc016766faed37928	-5.615660411507896
66	0x400f55fd5563eaa9	3.9169871016614093
67	0xc04c311201515913	-56.38336197349613
68	0xbff09fc1ceec2b18	-1.0390031893645695
69	0xbfea9871466ea650	-0.8311087012891196
70	0x3fd2762f785fa2ea	0.28846346621734986
71	0xc009fd9a51fd5227	-3.24882949880909
72	0x4005da2fdbf6ebe1	2.7315365967492515
73	0xc00674b139c55493	-2.8069786561341714
74	0x4001f0db52f8dc08	2.2426058275409595
75	0x3ffb48c070c13e15	1.705261650513312
76	0xbffe353efad73d25	-1.8879995153873292
77	0x40115ffefe7531a2	4.3437461623219935
78	0xbfefdec7fe88c3c2	-0.9959449740764443
79	0xbfd7679686e8e833	-0.36569750952515107
80	0x3feb4b8526a90d2a	0.8529687647900677
81	0x401098037cf436dc	4.148450806050928
82	0xc00d39f8bd6676e4	-3.6533064648527773
83	0x4025d892e488891c	10.9229957024259
84	0x4017f449b6ca82d6	5.988562446699424
85	0x40344f87e2a1c373	20.31066719483665
86	0x4022025d0fdbeeb2	9.004616256329744
87	0x405a468cf24f97ba	105.1023526932976
88	0xbfe92ea12789aba6	-0.7869420788023163
89	0xbfebe9fd0a82323d	-0.8723130421872792
90	0xbfe252bc390aacdb	-0.5725995172591881
