hw1/model5.npy (npy, 448 bytes, 1 tensors)

array f8 [46]
000000 b9 86 8d 20 a7 f1 f6 bf 93 22 e0 62 d2 47 e2 bf
       -1.4339972755046075 -0.5712673121607444
000010 12 79 ea 4b 5a 09 c1 3f d6 91 ac 29 d2 32 f6 bf
       0.1330979223902849 -1.3874074581045668
000020 be 2a 45 b7 bb 64 ed 3f c5 46 10 8e b6 24 0d c0
       0.9185465411659022 -3.6429263209073235
000030 22 e6 22 ff 98 f2 c7 bf 26 02 85 21 a5 17 e0 bf
       -0.18709099252537081 -0.5028863577536569
000040 54 2c 6b 2e 16 a2 ec bf 39 b7 b0 40 52 94 f1 3f
       -0.8947859675039447 1.0987112547840765
000050 31 09 ae 4b 7d 07 f7 bf 6e 3a 07 cf 4b 9c 09 40
       -1.4393284755938789 3.201316468628014
000060 0f 05 05 f0 b3 91 f2 bf df ea 4f df 92 49 ea 3f
       -1.1605719924703555 0.821481166988942
000070 e9 f5 42 57 66 b8 15 c0 ea 90 f5 76 26 65 38 40
       -5.430077899419737 24.395118174507765
000080 fb 1a 15 b0 48 e6 f2 bf 7e 30 22 f0 6c ac 15 c0
       -1.1812216642589977 -5.41838431557346
000090 04 86 35 db 32 f8 12 40 f4 b4 65 a9 d1 15 1a 40
       4.74238150133306 6.521307608444875
0000a0 f0 11 27 5b f7 72 3a c0 da 48 9c a8 0b c4 f0 3f
       -26.44908685401782 1.0478626810404905
0000b0 88 37 31 5d 8d eb f3 bf b8 2b bd 99 36 8a 07 40
       -1.2450078621218115 2.9424869547705974
0000c0 5f 79 fd af 99 37 fd bf 2a 03 a3 54 31 62 0d c0
       -1.826074302159746 -3.672945653176062
0000d0 bc 6c 0f 45 5a 0a 03 c0 f3 f4 44 92 8e e7 e3 3f
       -2.3800549884159334 0.6220162255118836
0000e0 fb 40 4b 06 18 a7 fe 3f d7 33 65 6d d1 62 1b c0
       1.915794396005423 -6.8465020268458465
0000f0 a6 31 5e ca 6c 52 4c 40 6c 3f 55 e5 b3 b7 0a 40
       56.64394502257646 3.339698592819266
000100 28 6f 72 9f 8f 46 0a c0 14 d5 79 b2 b2 4f 03 c0
       -3.2844536263272808 -2.4139150565557745
000110 b8 f3 ce c8 23 e2 18 40 e7 55 a7 65 32 ff 4f c0
       6.220839631682729 -63.993725496966185
000120 59 9e db 1c 56 3e 0b 40 9c f6 50 66 86 e1 17 c0
       3.4054376844904195 -5.970239256564721
000130 61 0d 2f 10 bc d0 12 40 fe 24 02 69 02 e8 f1 bf
       4.703842404243319 -1.1191429235353207
000140 81 85 1b c0 dc d2 f6 3f fa a7 eb 52 80 d9 11 c0
       1.4264800552558372 -4.462403579362212
000150 a8 d2 e7 fe cf 8f 1d 40 46 95 14 b0 28 30 18 40
       7.390441878222795 6.047030211693089
000160 11 0f a5 66 e4 57 25 40 98 b1 69 ba 4c 1e 5c 40
       10.671664436005388 112.47343311616567
