hw1/model_sqr.npy (npy, 1240 bytes, 1 tensors)

array f8 [145]
0	0xc00589044d94bd1e	-2.6919027386681043
1	0xc0022f5d73ca9ccb	-2.2731274648864193
2	0xc003d2b0f950d30e	-2.477876613406244
3	0xc001eb712f0c0cfe	-2.239961974673519
4	0xbfdcbd94a82248c4	-0.4490710870678749
5	0x40101577d52ba9a2	4.020964937963443
6	0x3fec0dbbf5d9f0f5	0.8766765405448768
7	0x3fdf2d0a821b6581	0.4871240873886436
8	0x3ff3cac7aa063256	1.2370068208284883
9	0xbff84c6ea6f0c858	-1.518660213576842
10	0xbfe1496c185f08ee	-0.5402126766205393
11	0x3ff2aaee8b08cef2	1.166731398680835
12	0xbfd63dada87c984b	-0.3475145478609007
13	0x3fe7dd10481c7e56	0.7457353027747995
14	0xbff99b299a8fc4e4	-1.6003814733087944
15	0x3fdc2dd6bedf703d	0.4402977813713312
16	0xc00657375cc95225	-2.7925860642374283
17	0x3fe9822b2c5ab8b1	0.7971397272392747
18	0x4011714037685274	4.36059652876121
19	0x3fded0a4c475a665	0.4814845961142054
20	0xbfa01a49fc682154	-0.03145056921136083
21	0xc005c04bdb923db1	-2.7188946870807844
22	0xc00d3784ddb20660	-3.6521088905290497
23	0x402d9f7732255087	14.811456267409325
24	0x4007dbe14564e933	2.9823632642193387
25	0xbfe5b383bd96922f	-0.6781634047407062
26	0x3ffba25c6e429959	1.7271389300381854
27	0xc010ca2fb63663d3	-4.197447630948733
28	0x40045be18c2e706f	2.544863791625225
29	0xc014b7e5c8baaa44	-5.179587494271406
30	0x401b31cf031341d3	6.79864125065838
31	0xc0335007cdd4c258	-19.312619080012468
32	0xbfdd27af4a896889	-0.4555471637628519
33	0x3ff05919f3409d1c	1.021753263668706
34	0xc01a88dee327c8dc	-6.633662747672329
35	0x3ffdab167d8d56c7	1.854269495428001
36	0x3ff479d721f1aa31	1.279746182054293
37	0xc003663a95245bd1	-2.4249164249153883
38	0x3ffb575546f99936	1.7088215610943513
39	0x3ff45ddfe24900d4	1.272918590475503
40	0x4010ee843ffd7b65	4.232926368566813
41	0x400313b5e7c6b6b6	2.384624300719987
42	0x3ff6c96f6261347c	1.4241784899670895
43	0xc000b1d6cca2de3e	-2.08683547851595
44	0x3fb87943a08b0615	0.09560034436710681
45	0xc00cb682861b93fe	-3.589116142002694
46	0xc0187034fc884f26	-6.1095771272846715
47	0x4043bdbf99716fea	39.48240964926647
48	0xc0024e72556be098	-2.2883040116831346
49	0xbfbba93c1f4bc2fe	-0.10805106891690383
50	0x402139ee03354716	8.613144016507743
51	0xc01115ec82e2697b	-4.2714100313845575
52	0xc00b6a4fe8f3ccd8	-3.4269102286722095
53	0xc0227b816c5a4d22	-9.241221796057804
54	0x401367f93e3fce97	4.85153672470519
55	0xc0472b514c524ebc	-46.33841852206157
56	0xbff0600918230dca	-1.0234461729859157
57	0xbfc1867d0672727b	-0.1369167596320898
58	0xc013a0d37ad5f926	-4.907056731519594
59	0x3fc225edac509b3d	0.14178248323261214
60	0x4005664f00e0dcc1	2.674955374586347
61	0x3ff54502e5c80391	1.329348466475697
62	0x40102b8af26933a0	4.042522227927208
63	0x400d629f03832b59	3.673154857101889
64	0xbffb9e588f9e6eb7	-1.7261586771118524
65	0x40092cfe56930491	3.146969486581448
66	0xc029fd2c4276db63	-12.994478299149426
67	0x40297f319347e6c3	12.748425104643848
68	0x401cad888fc42066	7.169466253610244
69	0x403e0153dbf5354f	30.005185840001385
70	0x400ae8067cc3dc3e	3.3632936236640765
71	0x40586435130977a7	97.56573940205145
72	0xc004548814f24623	-2.541275180476775
73	0xbfdcc4d609940dd9	-0.44951392112144856
74	0x401bb18a31c9e22e	6.923378732630722
75	0x400d41dce27ec9b0	3.6571595854704455
76	0xbff7561e18821276	-1.4585247952792577
77	0xc023f071dea2db49	-9.969618756656603
78	0x3ff3e4a5d17241c9	1.2433221990105372
79	0xc022965b35066221	-9.293664605168546
80	0xc009d44e9b701191	-3.228665556294978
81	0xbff97f6b3f9898ea	-1.5936081394407275
82	0x4010fb22a3309d58	4.245249318926049
83	0x3ff06afc657569cf	1.0261196101406431
84	0xc0165608f82f26de	-5.5840185908106985
85	0x4014ea053968300d	5.228535553917038
86	0x4000f4afcf2f5b1a	2.119475954659163
87	0x3fea83f65c51f1aa	0.8286086848379928
88	0x4010f46032a61ebf	4.238648215665022
89	0x40098e53d1b1d894	3.1944958097838683
90	0x401f62d488da011c	7.846513880067757
91	0x4006236a9730c0cd	2.767293149161651
92	0xc0290a3b498f7cf3	-12.51998357655109
93	0x4001fe7b0a512c03	2.2492581182500557
94	0x3fa545f4b0568f75	0.04154934551777859
95	0x402761a563668966	11.690714937464417
96	0xc00c649078c47448	-3.549103682990367
97	0xbff8d9a4b2a14760	-1.5531355836614793
98	0xc030cf52da98baf2	-16.80985800007597
99	0xc01cc3213fdf2396	-7.1905565242713205
100	0x402e2e64b2e1830c	15.09061202051955
101	0xbff42e5243e5577c	-1.2613089229757568
102	0x4005c57a99b52bb5	2.7214252479947967
103	0xc021f22b3b43ab31	-8.97298608017954
104	0x3ff2ca70c8f3dc97	1.1744239663801517
105	0x3ff1e3ee87909799	1.118147401380588
106	0x4023a90dbb9e9539	9.830182898624672
107	0xbfeeb21746564464	-0.9592396138924753
108	0xbfe21ff9b15f4842	-0.5664032425213537
109	0x4019482972717d50	6.320470607926225
110	0xc0263847f7cd93de	-11.109924072117732
111	0xbff932b7c7c1fb87	-1.574882297805489
112	0xc0179c1bc37320ee	-5.902449659253973
113	0x40089522de9e1502	3.0728204147332017
114	0xc026d6f5b8813163	-11.41984345032751
115	0xbfe4abf2aa7b8408	-0.6459897355781559
116	0x4020089b76a3d656	8.016811091899552
117	0xc02543cc12b3c1e8	-10.632416328852699
118	0x3fe8a2cb65bf5116	0.7698723780872878
119	0x40344d4b85b06cb2	20.301933627674494
120	0x401232d644283f57	4.549645485836513
121	0xc00477106e09eec9	-2.558136806181072
122	0xc028030c24815ff9	-12.0059520156792
123	0xc00e361a85ccd634	-3.776417775453206
124	0x401af3a485b0cb4d	6.737932289996775
125	0x402aee44776a727a	13.465366107696571
126	0x401dcaacda564ade	7.447925006405709
127	0xc03a06bd5fc47ad8	-26.026327119320598
128	0x3fc69799e9bd3004	0.17650150216138638
129	0xc01d33fb3812a9d2	-7.300763012065049
130	0xbfefa44198d9a22c	-0.9888008103708379
131	0xc027518013b0a85d	-11.659180274309785
132	0x40301191444a8ac7	16.068622844885592
133	0xbffb4a82ce1b3beb	-1.705691151717242
134	0xc02c0caf431fe8a3	-14.024774644513235
135	0x40013898b907f271	2.152635045580887
136	0x3ff21a6b514f39dd	1.13145000230326
137	0x401079f39ce6ea36	4.1190933719577085
138	0x40304a34d7766a14	16.28986879960037
139	0xbffa40dae7e1e16e	-1.6408337648300306
140	0xbfe5f1adf7d7dcff	-0.685751899784833
141	0xc033394930a66b77	-19.223773041372137
142	0x402275e463edfa1e	9.230258105087213
143	0x402c393358264a68	14.111719851183082
144	0x4009ac327d836322	3.209080677578087
