hw1/model6.npy (npy, 520 bytes, 1 tensors)

array f8 [55]
-2.29039960307471 1.1141591450968074 0.0050691261898915384 -0.5751572860032544 0.9297851948929372 0.42608510537658156 -3.3711035869956545 0.06730689994432741
-0.5366439383251633 -0.6517756512803377 1.0861334878174553 0.6055704878112921 1.0539895741674905 3.2375447791091156 -1.549494526089341 0.6319509174684557
-1.6635792265138931 -2.6048762435540302 18.65840874562606 -0.8631321844326718 -3.6828200326013456 1.155447947530628 -3.6470612047186317 4.854200158569411
-21.943692321095735 -0.3805624430629348 -0.1200832259748232 1.426463188365413 -0.8241814398859602 -2.224286372747462 -0.6216658024749906 -3.3189667072759956
0.827549216952015 0.3705875763453958 -4.5608738520775916 -3.8275197281773923 49.2633765898842 1.4863192967964776 -4.037520115218009 -1.8049288948456235
-5.87563448010122 5.085378404679917 -58.78115704682199 2.7136449843024057 -3.4235810293855176 2.4237507461026437 -0.01628451739776454 -1.597627022333544
3.5654183128984216 -3.391644530538216 11.300797723211321 6.590469971972569 22.36790467340351 8.423956115781609 106.6708899781331
00000000: 6ed1 ef06 bd52 02c0 84ae 2b8a 98d3 f13f
00000010: 8e31 4733 5dc3 743f 4515 ae40 b067 e2bf
00000020: 48d8 8be1 ccc0 ed3f aded 3976 fa44 db3f
00000030: d698 4c28 05f8 0ac0 0358 0e66 063b b13f
00000040: c280 96e8 2f2c e1bf 3680 529c 58db e4bf
00000050: 1d43 1482 cd60 f13f 0150 125c d560 e33f
00000060: 4afd f52b 24dd f03f a2df 8ce0 7de6 0940
00000070: e327 aec5 baca f8bf e888 6621 f138 e43f
00000080: 13ea 4240 059e fabf fe88 215b c9d6 04c0
00000090: 43dd bd79 8da8 3240 7e6d 0863 c79e ebbf
000000a0: 899c 6859 6a76 0dc0 6dfd adfc b67c f23f
000000b0: 0f37 c66c 2e2d 0dc0 ae2c 4572 b36a 1340
000000c0: af97 e8d1 95f1 35c0 7ba2 c293 225b d8bf
000000d0: cd2b 5c38 c6bd bebf 2ca3 6f10 cbd2 f63f
000000e0: f2f8 48c1 b15f eabf 4b1c 5fa7 56cb 01c0
000000f0: 687e 55ae afe4 e3bf 0c1b c26a 3e8d 0ac0
00000100: 4175 d47e 487b ea3f af45 2df4 b4b7 d73f
00000110: 506b 0fb7 553e 12c0 9f88 caa9 c29e 0ec0
00000120: d60a f852 b6a1 4840 3279 32be f6c7 f73f
00000130: c936 4fac 6b26 10c0 5f7a ef1e fde0 fcbf
00000140: 8923 3d53 a680 17c0 228a bf6f 6d57 1440
00000150: f891 40f4 fc63 4dc0 2144 6480 8bb5 0540
00000160: a255 6373 7e63 0bc0 e654 616e d763 0340
00000170: 2f40 9e76 e3ac 90bf 100e 425a e18f f9bf
00000180: 6daa 5309 fa85 0c40 218d 1287 1622 0bc0
00000190: cace bf28 029a 2640 a291 0b29 a45c 1a40
000001a0: 4a50 2c00 2f5e 3640 4171 a8c6 10d9 2040
000001b0: efd2 84dc efaa 5a40
