hw1/model7.npy (npy, 808 bytes, 1 tensors)

array f8 [91]
-1.3607109816454046 -2.3356949052178186 3.5497329979457515 1.0089604503668446 -4.21414972318718 -0.5717305474272534 1.1528837435480737 -4.36475976222723
-1.0113234181102309 0.1201997565776673 0.48865424256419193 -7.910921291000794 0.4275613718382046 1.023531419784903 -1.6073833747162545 4.145694685094862
1.7412690411942826 -1.0134287816070355 -0.16561622068978601 0.13278534740944217 0.007622186691281348 8.985110105125516 5.017242457256183 0.3307140505587075
-2.6751746594241177 -1.8613645041749258 -5.402201129151672 24.240357685537475 0.7857670062711801 -0.04486260350851561 -0.21715889343998362 -6.629151199602617
-10.874788420845068 -17.16820203036498 22.685765410744946 -4.525671714577801 7.236813932354833 -26.303035104198717 -0.12005909823860664 0.3795164509633359
0.5199053554342346 3.992804007094754 -4.419516460007273 -5.637630477694111 11.386411682287589 2.1173944882176436 -0.9111608577450367 -2.7809425573373843
-0.1571134378308915 -0.2461615593098636 -0.2927255347521537 2.3740878183120175 -7.57117973345801 -6.015772442433573 10.486960661358706 -6.847711135299632
-7.40504524701126 55.89023771175205 0.5545238607912978 0.3510889351875167 -0.30307688921227366 2.6732150507694863 2.8494414671398536 -2.6583552309346765
-3.767865544798659 -3.2292655079811774 7.063059606037233 -63.05807937530622 -1.001224195184127 -0.8205124707810073 0.28118962999184655 -11.355582336348066
-6.6145292500063295 -16.01421962930231 22.700683687467972 -1.297957210807176 -0.6763632092725926 2.742217159149618 -0.8796329957423117 -0.3698793839458522
0.7718240803605095 8.612909539051124 -8.313872463120262 4.058767033377617 17.086746281387743 21.766762447646574 6.815407892384668 108.55159730881397
-0.8207681380901548 -0.8648835872615074 -0.5418052615696358
00000000: e299 d7e0 78c5 f5bf 3bc1 7acf 80af 02c0
00000010: 1cac fd69 da65 0c40 4987 94b6 b324 f03f
00000020: 4425 a610 4adb 10c0 1860 6adc 9d4b e2bf
00000030: 7f10 6a39 3672 f23f 98a6 4695 8375 11c0
00000040: e465 e776 612e f0bf 6cfd 7c47 69c5 be3f
00000050: cb59 b771 1c46 df3f 6550 088d c8a4 1fc0
00000060: b1fd 445f 2a5d db3f 4479 667b 6260 f03f
00000070: 96a5 28a1 d7b7 f9bf dbbb cefc 3095 1040
00000080: b077 17ed 3cdc fb3f cd3c 1d19 0137 f0bf
00000090: 315e c68d e932 c5bf 8d7a 413a 1cff c03f
000000a0: 084b 0229 7138 7f3f 49f2 085a 60f8 2140
000000b0: 6a12 b801 a811 1440 ba8c de43 6b2a d53f
000000c0: 2584 caf8 c166 05c0 70dd 7525 26c8 fdbf
000000d0: 9a7b e09c da9b 15c0 c8b9 ce14 883d 3840
000000e0: cabc 46d9 0025 e93f a7d5 c32d 3bf8 a6bf
000000f0: 9c1d aed4 dccb cbbf 3021 4a36 4084 1ac0
00000100: eae5 9444 e4bf 25c0 d489 cb49 0f2b 31c0
00000110: a7e0 6b52 8eaf 3640 f52c 9aaf 491a 12c0
00000120: fecd fa59 7ff2 1c40 cd12 66b5 934d 3ac0
00000130: 2aa6 856c 31bc bebf f39d 4b5e ff49 d83f
00000140: 905e 538e 10a3 e03f 4f7a 2e3a 43f1 0f40
00000150: b075 0fb9 95ad 11c0 2984 0201 ef8c 16c0
00000160: 616f 84c0 d7c5 2640 e500 7d85 6cf0 0040
00000170: b220 add0 3a28 edbf a38c becf 5e3f 06c0
00000180: a476 9f0a 4b1c c4bf 5055 62d3 3882 cfbf
00000190: 32bc 9de1 03bc d2bf 5adb 0bc1 21fe 0240
000001a0: 505c 0d57 e348 1ec0 90b8 b1a6 2610 18c0
000001b0: c7f2 65e8 52f9 2440 8f44 4a63 0e64 1bc0
000001c0: 2141 652e c49e 1dc0 0ad2 304f f3f1 4b40
000001d0: b368 ded2 a8be e13f d28a a7b9 3d78 d63f
000001e0: b3c4 d59b 9c65 d3bf e2d6 9192 be62 0540
000001f0: feda c9f7 a7cb 0640 a51e 50bf 4f44 05c0
00000200: 6e15 d5b0 9624 0ec0 350a 9727 89d5 09c0
00000210: a583 86b2 9240 1c40 94c1 1c25 6f87 4fc0
00000220: d779 64a9 0305 f0bf dbdd 7e5e a341 eabf
00000230: 3f84 32ca 02ff d13f e94c 53e3 0eb6 26c0
00000240: b2d9 dc27 4775 1ac0 8ed0 cae5 a303 30c0
00000250: 0084 9201 60b3 3640 1e63 c0c7 6ec4 f4bf
00000260: 7263 0175 c4a4 e5bf 009f c88c 0ff0 0540
00000270: 7843 a618 f425 ecbf a2c5 6094 1aac d7bf
00000280: bd3c ed69 c8b2 e83f 1443 7347 cf39 2140
00000290: d86e 38e4 b3a0 20c0 5cc2 d96c 2d3c 1040
000002a0: 279c 1901 3516 3140 6571 348b 4ac4 3540
000002b0: 0ec5 5a49 fa42 1b40 ba7a cc5e 4d23 5b40
000002c0: da45 d68a bb43 eabf ad54 4458 20ad ebbf
000002d0: 04c1 e7fc 7756 e1bf
