hw1/model.npy (npy, 664 bytes, 1 tensors)

array f8 [73]
0	0xbfebf0a4e8651388	-0.8731255091630468
1	0xbff83b8d80acaa11	-1.514539244303368
2	0x3ffdc62566673e3b	1.8608755111817021
3	0xbfd40251de4b6c33	-0.3126415892454048
4	0xbfe324728c35519c	-0.5981991518443013
5	0x3ffa230f657d594f	1.6335596050681322
6	0xbfebd6a0aada6d7c	-0.8699496590592584
7	0xc00145d603edb913	-2.159099608127812
8	0xbfee840076ec8aad	-0.953613502763195
9	0xbff81d7a33fe8acb	-1.5071966200854827
10	0x3fbe93f8a4d0598b	0.11944536231781037
11	0xbfe9543615feb53e	-0.7915296964253355
12	0xbfe942c0ef40d2e7	-0.7893986390032212
13	0x3ff3bfd012195593	1.2343292910567
14	0x3ff24e73e60d2cfa	1.1441534983048869
15	0x4005a201cf8a9eab	2.7041050161531834
16	0xbfa12c8023664d02	-0.03354263717769791
17	0xbfcb25a8363c37cd	-0.2120867028065149
18	0x400edfd8995936e5	3.8592998485900005
19	0xbff6c08a63d304c8	-1.4220069789301295
20	0x3fa297d0bb7073e4	0.03631450927807814
21	0xbff4b3717e1fc770	-1.2938094069217776
22	0x3fd96b59baedaa09	0.39717715506290624
23	0x4025947c57bf9d44	10.790011160030765
24	0x3fe5f256552f85a5	0.6858321822912116
25	0xbfe2b08933f0ba63	-0.5840497984371037
26	0xbfe0a7afa221fc9c	-0.5204694906859859
27	0xc0056deb9a5a21a8	-2.678672033191294
28	0x3fcb84414744a606	0.21497360210314315
29	0xc008a6eeb536cf85	-3.0815099866248965
30	0x3ffa29ba62dd10dc	1.6351875173432324
31	0xc02e090865068df0	-15.017642170953849
32	0xbfdadf822a3c100d	-0.41989187359308816
33	0x3fe5996ee0c7af1f	0.6749796285853086
34	0xbfd4ac5c0597bbf6	-0.3230199865928961
35	0x3fc997b58d0d932e	0.19994229686121784
36	0x3fead1451445b93f	0.8380456348366251
37	0xbff49bb7806591b7	-1.288016797590087
38	0xc0031c80283e8477	-2.388916315467721
39	0x400219b311f95906	2.262548580572118
40	0x3fd288cb361362bb	0.2895992305835013
41	0x3fd6d1ccc0e767cd	0.35655516470216925
42	0xc00a3f0240c74289	-3.2807660160836503
43	0x3fea4cdb928d9db6	0.8218820440642307
44	0x3fd9633cc14fd8ae	0.3966819656192325
45	0xc012d7e00d7421bd	-4.710815630162355
46	0xbf8e70c360ce1a1e	-0.014863516227490211
47	0x40432282bb744bc6	38.269614631447936
48	0x3fe1f91f1c72f7e8	0.5616603427549736
49	0x3faf8b964689b7e2	0.06161183939990146
50	0x3fff30ff11bde856	1.9494620030441374
51	0xc00fae59c16c82e6	-3.9601321326484706
52	0xc00214ba3905e48c	-2.260120816700299
53	0xc019396b641c1425	-6.306073726857936
54	0x4002367808bc127b	2.2765961344142034
55	0xc049a1c0896abebb	-51.2636882563797
56	0xbfea0a2381337452	-0.8137376330811412
57	0xbfd057e5562d8411	-0.2553647367076915
58	0x400a21cc5c12bb1e	3.2665030663696504
59	0xc004cca7f85ad9db	-2.5999297526097798
60	0x3fed16b99aaae5be	0.909024049840063
61	0x3fea3520eedb45ac	0.8189854302565229
62	0xc000bdb09b0e79e5	-2.092622004870679
63	0x40154b302e6d1488	5.323425984771468
64	0xbff00d9fcf487e02	-1.003326234531301
65	0x4000178b07778341	2.011495645842303
66	0xc00fb0b1888d1257	-3.961276118092694
67	0x4025359365789c29	10.604640170071507
68	0x401bb61876608d9c	6.92782769169153
69	0x40350a4fe0b8d5f2	21.040281338811788
70	0x4024899b07a6e824	10.26876090919911
71	0x4059ad692333bb02	102.7095420842343
72	0xbfc7b41d0a1879e4	-0.18518412583303168
