hw1/model_sqr.npy (npy, 1240 bytes, 1 tensors)

array f8 [145]
-3.461012932867057 -3.2598317214088968 0.5370953389528906 -3.635358391181873 -1.1668276635564374 6.057234471539919 1.1670155716191948 -0.7833348791782265
1.7875039737773424 -1.4066213573771318 2.4213052449672463 0.6539210537240205 0.6201058991644658 0.08846564445687602 0.405769049544572 -3.21393460555104
-2.67784149442311 1.4469075592324123 3.47963829570992 -0.315277973172939 1.1770128954884467 -7.839435457210531 -7.774877038603536 24.677529336095482
3.8566156626805643 -2.8389290438937587 -1.4859373516316166 -7.224855295986283 8.548544454455607 -0.8293064821304342 9.159426518372364 -27.655364920889504
-1.3654940889537173 0.5681580682422512 -9.166001670051024 -2.934112164113496 8.302646969209874 -2.8862076389627527 4.683860322124788 -2.9183862299726218
3.7682974374082403 -0.6234977737676992 -0.944860477496595 -2.3316127718431243 3.300652601755763 2.8900529911267285 -12.327580251470502 54.41799635349956
-2.3767590085620958 0.9707292605070129 8.754044907363276 -2.6330987741269296 -5.032188428212956 -14.633754892723704 7.050178153832217 -56.01294062144802
-1.119741770800719 3.143047181303536 -11.280777670259164 -4.5150465532573945 7.929594011011941 -5.6867826241067325 8.199699291779295 -1.1867432202492223
-2.7136099752148084 5.303714311667502 -12.75357057261707 9.204537365802933 13.449381994932729 37.48797135148515 -1.9598483725255036 104.97928613368576
-2.7348077131213278 1.565506091292159 11.809919951304561 12.835779994086833 -14.991748976592666 -11.730037114645363 0.8790907810032984 -6.9324439671546925
-3.4490070799575667 -6.8281202797637475 1.0870004827296387 0.8123187835101221 -7.819499698087519 5.272885808873055 1.3060659942943276 4.2474966619434245
4.004611513660462 8.30991414869009 14.511596656325311 10.298195106315017 -24.6570782845156 8.954970583046899 4.531471068694016 -0.9684158901145451
-4.299358403090819 -3.271452200293276 -20.085419389014497 -15.302470141092641 25.33796306981315 -6.720404493933284 -2.7937447965251354 2.302707500119185
1.1608110479141118 1.6561686244688398 12.292865758010887 4.093789448421345 -8.23056065057647 8.621848159826 -11.307417101219928 2.7419021536670356
-5.2858008642110255 4.882896934121303 -13.206865216274567 -6.428881044943921 15.280560482394277 -18.521118342446737 9.077659823161765 1.2221785829848648
4.492471465998187 0.8156597816000235 -6.6722716140303495 -0.473412577557826 -1.4054124209084677 17.278917842536238 1.6586025263944324 -12.777550778075572
0.49597339389690276 -14.25531565599267 -7.11169515968318 -21.688863898832413 35.5506732083394 3.6183636424123438 -16.962716601655213 8.257529607896949
2.409772797692821 4.80549403340038 14.407647058691968 1.1110392146328782 -5.048395348660914 -26.89581756599206 15.36282393316361 5.358859328578892
3.7065147245847094
00000000: 9193 6d8c 27b0 0bc0 1751 4fa7 2214 0ac0
00000010: d95f 7490 e22f e13f 2dec bac7 3615 0dc0
00000020: 16b0 f07b 53ab f2bf 06df 5dac 9b3a 1840
00000030: 5c6f 2085 18ac f23f fb5e fc4e 1411 e9bf
00000040: e87f 4dc4 9d99 fc3f 78a3 7c65 8581 f6bf
00000050: 0724 c648 d55e 0340 0a23 7dd8 ebec e43f
00000060: 4dfa 9e53 e8d7 e33f 5a08 c339 afa5 b63f
00000070: db77 61bf 1ef8 d93f 5398 b258 23b6 09c0
00000080: 295a 5329 386c 05c0 76d0 738a 8826 f73f
00000090: c4dd 4f9a 4cd6 0b40 f552 fba9 832d d4bf
000000a0: 857d 5179 0bd5 f23f c449 eff7 945b 1fc0
000000b0: e2e4 cc5d 7919 1fc0 569c 0490 72ad 3840
000000c0: 98a2 0350 59da 0e40 8581 396e 20b6 06c0
000000d0: 329a 923e 66c6 f7bf bb5f 7a77 40e6 1cc0
000000e0: f793 98d1 da18 2140 818d 63bf ad89 eabf
000000f0: 840c 455a a051 2240 822a d6fe c5a7 3bc0
00000100: 2000 6f54 10d9 f5bf 5fe3 41d4 592e e23f
00000110: ace6 bf2b fe54 22c0 564e 5dcc 0f79 07c0
00000120: d8fa 258b f49a 2040 b27b d607 f416 07c0
00000130: 623b 5ae1 45bc 1240 17a2 36e1 da58 07c0
00000140: e926 7a20 7925 0e40 20c1 6e9a b1f3 e3bf
00000150: ac2f 440a 4c3c eebf 5c04 d098 24a7 02c0
00000160: 8cfc 1f8d bc67 0a40 2dc5 441a d41e 0740
00000170: 35c3 4599 b8a7 28c0 5e10 8ee7 8035 4b40
00000180: 0efb 213a 9a03 03c0 79bb 64cf 3610 ef3f
00000190: 66ae 912c 1282 2140 531a 1017 9610 05c0
000001a0: eaef d900 f620 14c0 4adb 7385 7b44 2dc0
000001b0: 6cbb e6e6 6133 1c40 5ff4 cc09 a801 4cc0
000001c0: 11de d858 76ea f1bf 8ede abeb f524 0940
000001d0: 9d6b 3e17 c28f 26c0 d3a1 185d 680f 12c0
000001e0: 3e6a 0f7e e7b7 1f40 77ff b7f1 43bf 16c0
000001f0: ef73 4efc 3e66 2040 ac85 7b75 e6fc f2bf
00000200: 002d 8d25 79b5 05c0 9cc1 6fe2 0037 1540
00000210: 933c 8900 d481 29c0 ffdd 211f b968 2240
00000220: 6c4b 9765 15e6 2a40 bf01 62d8 75be 4240
00000230: 93da 91f7 895b ffbf d366 bf9f ac3e 5a40
00000240: 21a3 c5dd e2e0 05c0 299e 7c1d 500c f93f
00000250: 4676 eed3 ad9e 2740 0f82 fa5a ebab 2940
00000260: 2b9d 9885 c6fb 2dc0 3c89 b86c c775 27c0
00000270: faf9 53fd 8221 ec3f ab20 6197 d2ba 1bc0
00000280: beb8 2006 9197 0bc0 6bf5 3ac3 fe4f 1bc0
00000290: cef5 409e 5a64 f13f 8147 23f6 83fe e93f
000002a0: 9878 c9ed 2a47 1fc0 ef9b a260 6f17 1540
000002b0: fa96 be74 a5e5 f43f 2aaa d3c3 6ffd 1040
000002c0: 4e6d 71e1 b804 1040 1c62 3a11 ad9e 2040
000002d0: 0152 37ff ef05 2d40 86e6 6a07 ad98 2440
000002e0: 02e8 4e48 36a8 38c0 2fa8 7de7 f1e8 2140
000002f0: 6e3e abf3 3920 1240 99ff 1e52 43fd eebf
00000300: 3e3b 5c02 8b32 11c0 b27e 9521 ef2b 0ac0
00000310: f642 8a0b de15 34c0 d004 c85d dd9a 2ec0
00000320: 6e1a 6cbf 8456 3940 ec56 35b7 b1e1 1ac0
00000330: a790 33df 9659 06c0 6420 eae8 f16b 0240
00000340: 8d06 fa9a ae92 f23f 5e14 ecab aa7f fa3f
00000350: ce8c 2980 f295 2840 ddb7 5657 0a60 1040
00000360: dbf0 ab0b 0c76 20c0 970f cbe1 623e 2140
00000370: 01f1 37c6 659d 26c0 b3a7 7665 6aef 0540
00000380: cfd1 53fb a824 15c0 9d28 4722 1688 1340
00000390: 9128 d53c ea69 2ac0 40a2 b797 2cb7 19c0
000003a0: e7dd a09f a58f 2e40 8b27 fe02 6885 32c0
000003b0: c762 4107 c327 2240 76aa 3c21 0b8e f33f
000003c0: 99b3 a270 4af8 1140 ac4e d48a e219 ea3f
000003d0: 6f28 51f8 67b0 1ac0 2d0f 8844 644c debf
000003e0: da1a 13bc 917c f6bf caf6 e328 6747 3140
000003f0: 41d5 7ecd a289 fa3f bca0 b522 1b8e 29c0
00000400: ee4a 9e30 07be df3f 654a d1bb b882 2cc0
00000410: d0d7 4737 6072 1cc0 59e1 6c62 59b0 35c0
00000420: f14c ae75 7cc6 4140 5792 29a3 68f2 0c40
00000430: e76c 5f98 74f6 30c0 9456 b7eb da83 2040
00000440: 790c e7f5 3647 0340 a14f 8a6d d338 1340
00000450: 02c9 821d b7d0 2c40 6fbf 360e d1c6 f13f
00000460: cb1b df8c 8e31 14c0 441e cd4c 54e5 3ac0
00000470: 9f49 fe0e c4b9 2e40 8571 e0d1 786f 1540
00000480: c5de 2131 f1a6 0d40
