hw1/ans_n_model/model8.npy (npy, 808 bytes, 1 tensors)

array f8 [91]
-1.5512954984391536 -2.363542368009365 3.809177438967855 1.352696653321138 -4.779736626463111 -0.5714796766838145 1.153229371578127 -4.363105639677714
-1.0168194579254142 0.11954461355005577 0.4872965376732254 -7.800395818683299 0.5026517441148043 1.1639917952282848 -1.815198592468786 4.137142817036753
1.7421257904045053 -1.0172339696312132 -0.16894508550649714 0.13517212481938823 0.009325325936897208 8.829120468682904 5.344173383922446 0.7310632518260965
-3.341896350747835 -1.86922749557631 -5.399620437283989 24.232861731607617 0.7942433573857136 -0.04244150683209131 -0.21700805735835646 -6.504520505467714
-12.623628671720521 -19.5758550833529 26.57382565080094 -4.506325183741778 7.24068339302031 -26.30333274319185 -0.12349321381694829 0.37561175498340005
0.5187253897676163 3.9084334152147626 -5.002930941969735 -6.530389027653801 12.768940733800113 2.1010936547958674 -0.9145886582121103 -2.7563533578915513
-0.15821244496965758 -0.247963440732173 -0.29144767497541857 2.498231020892397 -8.319665485347175 -7.03140558331445 12.142828142705032 -6.858205910103981
-7.4123106381792265 55.87269523716605 0.5611482917859218 0.352724619005919 -0.3017171781174602 2.4831754930540386 3.1752118042602118 -2.2228695658621467
-4.463628413789691 -3.2137982695354723 7.074860593568777 -63.0626522351243 -0.9996208832761478 -0.8204583060581431 0.2819764500746765 -11.218995514365863
-8.13625247999726 -18.135082926275917 26.117428057543233 -1.2993300939763717 -0.6949217592999755 2.753859551902952 -0.8750130373097528 -0.36834301376451545
0.7700978163143006 8.584577385847675 -9.171206935541775 2.8201957942726064 19.054701037424056 21.7684525863847 6.820667643276875 108.5440129345258
-0.818124948146295 -0.8660895374475842 -0.5387144436676611
00000000: a4a6 833a 1bd2 f8bf 267c aae6 88e8 02c0
00000010: 4a39 6805 3279 0e40 5ac4 f63e a5a4 f53f
00000020: 179c 3847 731e 13c0 bdf0 35bf 8f49 e2bf
00000030: 5c6f 3ba4 a073 f23f c2a2 fdf6 d173 11c0
00000040: 1d9e db7a e444 f0bf 5246 9ccd 799a be3f
00000050: 9bac 30d1 dd2f df3f 5066 24f6 9a33 1fc0
00000060: a503 481c b915 e03f c215 55dc b59f f23f
00000070: f160 e6ad 0d0b fdbf 7737 a82a 6f8c 1040
00000080: 55e3 f44a bfdf fb3f 1e24 7f20 9746 f0bf
00000090: 8900 8918 fe9f c5bf 980d b7f7 514d c13f
000000a0: 585b 630f 2819 833f e1df 627a 82a8 2140
000000b0: f966 d0fc 6e60 1540 dfd0 bcc2 de64 e73f
000000c0: 69ab 6827 34bc 0ac0 3b8c 2417 5be8 fdbf
000000d0: b4ca 9319 3699 15c0 a1be 91d3 9c3b 3840
000000e0: 1f2e a10b 716a e93f 1970 aca7 e4ba a5bf
000000f0: 0b4c a986 ebc6 cbbf b594 fc05 a104 1ac0
00000100: 6ec6 db41 4c3f 29c0 6e3c 1e3d 6b93 33c0
00000110: c4cb e33c e692 3a40 9e3f e51b 7a06 12c0
00000120: a6d9 16b5 75f6 1c40 a1d0 f336 a74d 3ac0
00000130: 9529 9f52 409d bfbf 4a66 e9e2 050a d83f
00000140: 3804 15fd 6599 e03f 2887 07bd 7844 0f40
00000150: 3ea0 2f54 0003 14c0 a4b8 1f4d 1e1f 1ac0
00000160: ab77 9099 b289 2940 6f73 a930 0acf 0040
00000170: 7c08 0a6f 4f44 edbf 77e9 42fd 020d 06c0
00000180: 2881 7b2e 4e40 c4bf 432f 461a 44bd cfbf
00000190: 32f0 2026 14a7 d2bf 2eaf a48b 60fc 0340
000001a0: c173 ca31 aba3 20c0 4efd 04c9 2820 1cc0
000001b0: aabb 33c5 2049 2840 a685 b487 cd6e 1bc0
000001c0: 3617 8bc2 34a6 1dc0 6780 3f7a b4ef 4b40
000001d0: 58a8 2d43 edf4 e13f 84f7 c747 0a93 d63f
000001e0: 3dfa 2991 554f d3bf 8a2a e71c 8bdd 0340
000001f0: b95d 4972 d566 0940 8e36 c5d6 6fc8 01c0
00000200: 6fe4 2a68 c1da 11c0 1dc5 fcdd dbb5 09c0
00000210: 568c 6441 a84c 1c40 a970 0afd 0488 4fc0
00000220: e33a 42ef e4fc efbf 830a 08c7 3141 eabf
00000230: c106 d4f3 e60b d23f 1b58 182e 2070 26c0
00000240: 9c2c 93e2 c245 20c0 619a 6ecb 9422 32c0
00000250: efc7 e2c3 0f1e 3a40 db64 455a 0eca f4bf
00000260: 161c af8e cc3c e6bf 689a 4984 e707 0640
00000270: 6135 5a57 1b00 ecbf f508 7593 ee92 d7bf
00000280: 5a4f f92c a4a4 e83f d564 24ba 4d2b 2140
00000290: 2800 7a6f a857 22c0 9fbd 05d0 c28f 0640
000002a0: 29cb 1ee3 000e 3340 850c 074f b9c4 3540
000002b0: cd09 4319 5d48 1b40 ea98 a01b d122 5b40
000002c0: a18f 0a5f 142e eabf 33d8 d767 01b7 ebbf
000002d0: 1def ad12 263d e1bf
