hw1/ans_n_model/model10.npy (npy, 1528 bytes, 1 tensors)

array f8 [181]
0	0xbf987dd4ef9b8643	-0.023917510151369347
1	0xc00346447e612b3f	-2.4093103288081745
2	0x3fcd66cc01246ed7	0.22969961219575083
3	0xc00a27590f0bfc5e	-3.2692128348858622
4	0xc0001fa1edb1565e	-2.015445572828681
5	0x400ebf647682067a	3.843453336566026
6	0x3fe90d8b61ae53d6	0.7829033763724691
7	0xbfd77db2bd0e98d4	-0.3670470091114002
8	0x3fed4b6c54fc2749	0.9154569301474363
9	0xbf95df4d4ece0d12	-0.02135964196669444
10	0x3fd29172b4c56426	0.29012744573043603
11	0xc0025d71e82bc158	-2.2956274164536516
12	0x40011b77e2b7fb9e	2.138412257423126
13	0x3fe5ff8b1de2320b	0.6874442657149883
14	0x3fe8104d803c52ee	0.7519900803186752
15	0xbf712e055b658fde	-0.004194279600003596
16	0xbfe9ee5b4ea3655b	-0.8103462730315799
17	0xbff2922b49b678ec	-1.1606858138471194
18	0xc00bbe92cc4567bc	-3.46805343233879
19	0x3fb5e38e8d3f7947	0.08550349186359539
20	0xbfca517532d2f4f4	-0.20561089498179508
21	0x3fe8355fc45f4176	0.756515391864055
22	0x400055b0dd5629bc	2.041841248695361
23	0x3fc942dd955c40e6	0.1973530749605807
24	0x3f914481631f3e3f	0.016862889933518806
25	0xc0122b18ee630dfb	-4.542087292476476
26	0xc013c54dd3cdeafb	-4.942679700320464
27	0x40333f33800839ab	19.246879579551813
28	0x4011b1eacf0c2d41	4.423747286909305
29	0xbfc248459ef6f9da	-0.1428305650897091
30	0xbfd06e0bc899cc66	-0.2567166766159005
31	0xbffaa79f1809009a	-1.6659232081292772
32	0x3ff3e8f50463d945	1.2443742915616707
33	0xc01378d5cc4eb375	-4.868003074935463
34	0x40104126eae20d58	4.0636250210257785
35	0xc008337bf1c8c387	-3.0251387490647548
36	0x401c1ed2725810fa	7.0300996652842915
37	0xc037c8a7d06411d6	-23.783810638838837
38	0xbfdb5d1e4ef5495d	-0.42755849562413123
39	0x3fdc9f1855d54d6d	0.44721039182805705
40	0x3fe02f5ee7944265	0.5057825587301293
41	0x3fe69a355b7cfbf1	0.7063242709044727
42	0xc020c11a55cf6d7d	-8.377154046602977
43	0x3ff3f79559966925	1.2479451655877452
44	0x400ee501e42cfb78	3.861820013640166
45	0xbfe80bbe7e08fd92	-0.751433607256262
46	0x400640f930c5353f	2.781725293176947
47	0xbfc7e011bd75a022	-0.18652555228186524
48	0x4009daf4cfe5bd4a	3.2319122545228867
49	0xbfcd66c45cb25a36	-0.2296987011547615
50	0xbfdccee7cbf6869c	-0.4501285068346108
51	0x3ff14a70ab9deeba	1.0806738570962993
52	0x3feb4df6a708a2e8	0.8532670271279956
53	0xbffbb61d740fee57	-1.7319616826706772
54	0x3fec598fc67d3881	0.8859328152409632
55	0x3fb199c9b5234198	0.0687528674345742
56	0xc02006f37e76bf43	-8.013576461787698
57	0x4047cdc7acf9c130	47.607656118345744
58	0xc001b169c5bb40ea	-2.211627526070619
59	0x3fd096242546a9e7	0.2591638912223559
60	0xbfd99770cef27fdf	-0.3998682042092678
61	0x3ffb95c0327e1b74	1.7240602466933668
62	0x401c17528d2966fe	7.022775846149441
63	0xc00ebb6898f321a2	-3.8415080975721176
64	0xc00800841138ba21	-3.0002518983303763
65	0xc028ff6302707fd2	-12.49880225775988
66	0x4014a349728cfcf3	5.159459867339353
67	0xc049ed7e5bc3ebb9	-51.85541865412183
68	0xbff815b26f38432a	-1.5052971214792685
69	0xbfeebbc72c25dd3e	-0.9604221212638675
70	0x3fc3f72058536608	0.155979197624035
71	0x3fea53880644632f	0.8226966974644706
72	0xc01cce422bb79cd4	-7.201424296457123
73	0xbffe21d0e27b5d0f	-1.8832558485935953
74	0x4012bc85a5502c8b	4.684103568094666
75	0xbffede6e12962b80	-1.92930419216529
76	0x4016747e546f2779	5.613763160023034
77	0x3fee581b88e1d811	0.9482553170662432
78	0xc00f94bf4be478f3	-3.9476304940318356
79	0xbfe33bbee4e68e09	-0.6010431738581598
80	0x3fd8daeee6e581c0	0.38836262272345934
81	0x40122e3d756f8ec0	4.545156321462571
82	0xc0273a477434b6ad	-11.613826400217784
83	0x4025f11210cb5324	10.970840954608839
84	0x4020eed062c7e7b5	8.466433607962111
85	0x4041cb3e1096425d	35.58783156716229
86	0x3fe9bc74227967e9	0.8042545960736308
87	0x40596374989e1703	101.5539914649817
88	0xc00f91713f07693e	-3.946016781247777
89	0xbff20bcaff3fe905	-1.1278791399659565
90	0xbfe80ec451281026	-0.7518025956237622
91	0x3fa3ec3649d98db9	0.038911530032034354
92	0x4020d3521f7e4b48	8.412735923926121
93	0x40229bd887152b0b	9.304386349996568
94	0xc020795a665d9e7b	-8.23701782124339
95	0xc02568bf0d556089	-10.704582611724861
96	0x3ff1d89ec61eef27	1.115385793599623
97	0xc01ec50292f2455f	-7.692392631566093
98	0xc002efb7eadc4e61	-2.3670500133974177
99	0xbfd1e17da61f35e1	-0.2793878671917281
100	0x3fc3a49a5728a2b3	0.15346078162953844
101	0xc00e2fd7652e9e0c	-3.773360052571439
102	0x3fe93cc9931dc6f1	0.7886703370442928
103	0x3fcbb087021a295b	0.2163246879829995
104	0xc01a36b2e2758bb5	-6.553416765617773
105	0x40177500c223f21f	5.864260705417592
106	0x4007b050eefdffc6	2.9610918685211542
107	0x3ffc045421fb8a58	1.7510567977375526
108	0x4013cdc571b5ab58	4.950948502267089
109	0xbfc696572de666df	-0.17646302930079735
110	0x3fb4fa98749a3b5e	0.08194878432025862
111	0x40149129b6df742a	5.141760690105949
112	0x4022180dbf37f129	9.046979880884992
113	0x400c6e7367ec06e5	3.5539310568718627
114	0xc02687c8d9004842	-11.265204221043067
115	0x40125e2e6aa68c01	4.59197394029161
116	0x3ff3d2169892c18a	1.2387910804646673
117	0x4017e3a5f2188cfe	5.972312720058879
118	0xc0146037b4ac6221	-5.093962500592654
119	0x3fd26bb28113c8a9	0.28782332043841535
120	0xbfcebae4ae69ca52	-0.24007853046676303
121	0xc001a332353a91d6	-2.204685607767014
122	0xc031f2b38105cc50	-17.948051513591338
123	0xc027bc5f2733e442	-11.867913460812023
124	0x40334f1315f5b422	19.308884975897065
125	0xc007917aa85e1eec	-2.946034732220019
126	0x3f2cbbb2fff5d942	0.00021921691948607365
127	0xc006d07e22ac36e9	-2.851803084259576
128	0x3fdbf95bfe568ad6	0.43709468686772135
129	0x3fb504816c7614c3	0.08209999940852968
130	0xbfb8e7f1b210107d	-0.09728918645129343
131	0x40009ded190d417b	2.0771123845262855
132	0x40261c7cac04cae2	11.055638671479247
133	0x3fcfc39df4c07159	0.24815725756423992
134	0xc0078328bda34863	-2.939042550607199
135	0x401226e2057be224	4.537971578298798
136	0xc02276397d42d5bd	-9.230907358559188
137	0xbfe0e3a967e19e97	-0.5277907399112846
138	0xc012db166fb3f834	-4.713952775344342
139	0xbfd1f1e0f89e4728	-0.2803881099617791
140	0x3fc39f51de1f229f	0.15329955430776906
141	0x4007e6edda41d7fd	2.9877583552688507
142	0xc0278b5bf84ed10f	-11.77218605005376
143	0xc00f806070178f6c	-3.93768394061947
144	0x40267dc5653c565e	11.245646632781412
145	0xc02a362907eb5fa2	-13.105781791193127
146	0x400d1844fd84c656	3.636850338568176
147	0x40246e78338e6dc5	10.215760813843085
148	0x40100ecbd51fe42d	4.014449434348575
149	0xbfc8a4f241a0d4ad	-0.19253376202110442
150	0x3fb7ab0294c15391	0.09245315677374168
151	0xbfe31fb07933d810	-0.5976183287846215
152	0xc0251e562051cfd8	-10.559250841128161
153	0xc013a7fb09f528fb	-4.914043574894317
154	0x401c4d7e43cfe979	7.07567697483534
155	0x402aa1605b4542a9	13.315188266949308
156	0x400e8a400963036b	3.817504952749393
157	0xc0324cf0c42a3595	-18.300548801712996
158	0x3fe53922a11b2629	0.6632245203592834
159	0xbf9dd46580aa8346	-0.029130540826943795
160	0xbf94d03f5b960934	-0.02032565113541658
161	0xc025ee08ad48c25a	-10.964909949428307
162	0xc008c1e68e557dae	-3.0946780319061054
163	0xc02f7e11a3533652	-15.746228317172754
164	0x403807b68e5fb0ac	24.030129335748526
165	0x3fe9620c389d3a0e	0.7932187181230022
166	0xc02b03260480b4fe	-13.506149426184944
167	0x4017e7cf2f474933	5.976376284337948
168	0x400dc4468d417828	3.72083769184157
169	0xbfd94c112e601439	-0.3952677681812165
170	0x3fcdade7ea6851c7	0.23186968751600842
171	0x40106e2ab60213be	4.107584804417398
172	0x402b11a225b0d3d7	13.534440210185421
173	0x3fdfdb7c33cdf66d	0.4977713113692975
174	0xc00029896cbb8d30	-2.0202816481338672
175	0xc03a29ab0f432d34	-26.162766412640124
176	0x4026b538f4eece4d	11.353950170661074
177	0x4022754656d38e93	9.229052270245381
178	0x4011fd57e1a99e01	4.497405553796399
179	0xbfcdc3dc1006b6dd	-0.23253966124087003
180	0x3fbe970bcac6ea61	0.11949228001223268
