hw1/ans_n_model/model9.npy (npy, 1528 bytes, 1 tensors)

array f8 [181]
00000000: 0795 021f fbe4 c0bf db03 f9ba 6592 12c0
00000010: 287f 2e7c a74c d13f c2b5 0caa 496b 18c0
00000020: 6b19 5695 313b f73f 54f1 d82f 64ac 0e40
00000030: 55fa f69a 1466 f53f ad5c 28a2 9665 f1bf
00000040: 3013 ba0f 78da f03f e4ee 104e 7da1 77bf
00000050: 67ab 0cf9 b27d d43f f154 916b b4dc bd3f
00000060: d4ac a115 a54e fb3f 090d db95 2a43 0340
00000070: 858d d8ce 116d dcbf d377 53b5 afab 0140
00000080: 67a7 6323 e605 ea3f 79bd c097 e67e 0ac0
00000090: b927 0e8c 4d2d 0ac0 dbee 8520 20ad a33f
000000a0: ddd6 75ea f8f0 cdbf 5d17 b7f8 469d e23f
000000b0: 50ea c4f6 1552 0640 e743 565d 49df 0ac0
000000c0: ce29 93a6 3480 0f40 a011 0f9a bc47 23c0
000000d0: aaee 5a63 acc6 21c0 7e1c c9a9 885e 3940
000000e0: 6bfc 163a f156 1140 c8c4 ed74 c439 b9bf
000000f0: ad46 7182 23a9 cbbf 83a3 e7df 486e 08c0
00000100: f9a6 e806 dbe1 15c0 e7a7 0b57 8593 21c0
00000110: ad3d 381f 301d 2840 1c42 146a d535 f63f
00000120: c5b0 fd96 92c2 2240 be76 9fc5 ec0b 3cc0
00000130: ef45 829d 7d4e e8bf ec98 783c 06a3 dd3f
00000140: dd5a 92b6 ff60 de3f be13 6fcd 7ac8 0240
00000150: b2ac 49c1 a82f 26c0 efea 8e3d 0094 21c0
00000160: f851 291d 08e1 3040 fdcd 029a 5a9c 09c0
00000170: 65b8 4153 ccf1 1540 de86 b192 6d1b 0bc0
00000180: 9bf8 4410 4504 0c40 c642 17be 73a8 d0bf
00000190: d65a 5bf5 9d4e dbbf 37f3 034e 923b 01c0
000001a0: b565 32a1 f1c1 03c0 abdd 692c f9da ffbf
000001b0: 1bba fe19 4fed 1040 6d98 fc3f 5e89 0c40
000001c0: b889 7668 fdd4 2ac0 9da2 b6e3 a8ce 4b40
000001d0: f640 cec3 1dea 01c0 e732 7692 658a d23f
000001e0: 84ab 101f 9d0e dbbf c113 6fda 73a4 e9bf
000001f0: e015 2689 e98c 2540 1eea 42b7 6f38 03c0
00000200: 9763 3265 a1da 1cc0 572e 0b67 0aac 2dc0
00000210: a6b7 df0e fb82 1d40 e0f0 073f 433f 4cc0
00000220: 7775 8643 50ad f4bf 0046 ddde a7fa eebf
00000230: e9a8 22b2 1bee c63f f559 6e8a 22de 1d40
00000240: 8269 7fbe 2909 2ec0 2433 83db 2a93 19c0
00000250: 5755 f5cb 36c1 2b40 06ad f399 4858 14c0
00000260: 058a 6c3a 33f8 2040 19da 9064 8bc4 f5bf
00000270: bb6c 9c55 538e 10c0 f33a a7cb d1b4 e2bf
00000280: 41f4 159a 1b11 d73f 9e31 e762 ffc7 0b40
00000290: f9bf e0e2 9fc5 2ec0 4a4d cf2e 2384 f73f
000002a0: e45d eef8 9c73 3640 8fe6 d665 f785 4340
000002b0: 44ec 595b de9e 04c0 03d1 bd5c 8b46 5a40
000002c0: b0cf 4c26 1a1a 10c0 ab7c d42f c43b f2bf
000002d0: 60e4 452b 2553 e7bf 6867 ae92 815c 0240
000002e0: 884d 901e f4b4 2540 4ade 31a9 6751 2b40
000002f0: 5687 6a26 9256 2fc0 bacd 0f78 5342 26c0
00000300: 5976 7796 7d5a c93f 8771 de3b 2785 19c0
00000310: 97a7 afcf 5173 04c0 2a51 0ca3 f0fe d7bf
00000320: ea27 46f2 bac9 a23f 3ce2 d489 f0bc 1fc0
00000330: 9496 e87d aafc fcbf 68bf cb61 f45b 0cc0
00000340: 7709 15bc 271a e1bf d5fd be96 aed1 0a40
00000350: fa84 eb43 bdd5 ed3f 1738 c3ef 71de 1040
00000360: 64dd 40b4 fd16 1340 55b1 a570 c0ac d3bf
00000370: 35cf 4ebd 4af8 84bf cb9d 2753 5ed3 2140
00000380: 80d0 53d2 f2bf 2e40 30e9 69ea fb6f 2940
00000390: ccdd fc11 8062 3bc0 9c6e de9c 2f75 2640
000003a0: 15f6 a086 36dd 1a40 9d33 cb00 8f08 03c0
000003b0: 9efb 4a20 c121 14c0 c9d4 f5d5 77e8 c73f
000003c0: 164f 1e0d ed97 d6bf ba61 6f4d 32f6 09c0
000003d0: 4258 5ccf a9b9 37c0 8abd 0048 2677 35c0
000003e0: fd9d a646 8a0c 4240 e1bd 6639 848d 23c0
000003f0: f149 329f 7da8 0cc0 dd9c 9293 1132 0940
00000400: 21e6 accb b586 e63f d859 28d3 ccc6 8dbf
00000410: 3172 4eae 744c cbbf 9b0c c798 d0c4 be3f
00000420: d88c 1d83 92d5 2e40 8240 284c e6e7 2240
00000430: eb79 7e44 930c 31c0 7eb6 b9f8 9a9f 2340
00000440: 8f21 40c0 74e6 28c0 084b 0f5f 15b3 0e40
00000450: 7625 75a3 71e4 13c0 b96d d84f 78eb d7bf
00000460: a0c6 550f dcf3 a13f ede5 0368 6af3 1640
00000470: 533b 852e 0b4e 30c0 ce25 d849 6f7c 27c0
00000480: aee6 5f2f 032c 3740 eec9 ec46 524c 33c0
00000490: e06f fb08 60b9 2540 a6ce 5620 5556 edbf
000004a0: 81c8 ef82 4647 1040 78f9 06be 975f d4bf
000004b0: 80e4 f9b5 d2b1 6bbf 2424 db55 b7a2 0240
000004c0: ebd1 0cf8 f985 1bc0 b023 0da4 1360 f73f
000004d0: be57 88c9 606f 08c0 aa33 c156 7806 3140
000004e0: 1843 83ad 1a3f e83f 46a2 5f90 cd68 27c0
000004f0: 2bbc 5104 aba6 db3f fc3b b723 672f bebf
00000500: 6033 b241 cf22 c2bf 303d 10b8 3ab2 30c0
00000510: a3a5 c0ec d8b6 1fc0 ead6 83f7 ba8c 39c0
00000520: 79b6 c69c dfc1 4340 5422 92e8 839d 0c40
00000530: 7a02 be32 9d81 31c0 2544 01a7 5556 2240
00000540: cfb8 c117 f35f 0f40 6ee9 2282 8494 e0bf
00000550: d373 1c40 8126 c13f f320 157f 6542 1540
00000560: bbb2 0537 0932 3240 5241 cad5 d456 2040
00000570: d954 0057 7ec1 2cc0 86b2 0157 35d4 3dc0
00000580: df89 6f4c c7fa 2f40 d3f0 9f9f a200 1140
00000590: e9a1 21b9 97e5 1240 d764 b424 cb53 d6bf
000005a0: 2818 9e9b 9781 913f
-0.13198794378437403 -4.642966195534394 0.27030360343086324 -6.1047731943376125 1.451951583237668 3.8341754663544325 1.337421994525035 -1.087301858356834
1.0533371557550701 -0.005769242737240641 0.3201720649837427 0.11664893747486695 1.7067004055959858 2.407796068904308 -0.44415707778735963 2.2088312307450706
0.8132200900265446 -3.311963258332693 -3.2721205655879797 0.038430217714418645 -0.23391639183289828 0.5816988809317355 2.790080955395105 -3.35902665061484
3.937600423208301 -9.640110792483767 -8.888033966875202 25.36927281532234 4.334904582646327 -0.09853771071154249 -0.2160992037702746 -3.0538499348226096
-5.470562084150282 -8.788126678631626 12.057007766356799 1.3881429809299624 9.380024641483383 -28.04658160346184 -0.7595813824029259 0.4630752172983097
0.47467034177081563 2.347890477134995 -11.093084373706322 -8.789064334579477 16.879030058467805 -3.201344683847991 5.486131001363991 -3.3883925877024543
3.5020848532722773 -0.2602815014225083 -0.42667340241079665 -2.154087647910639 -2.469699153280738 -1.9909602866081098 4.231747060940076 3.567074298759556
-13.41599585005757 55.614529098679874 -2.2393145844763422 0.28969706824209 -0.4227669528360638 -0.8013247743880286 10.775219236277678 -2.4025568311019603
-7.213506299210073 -14.83601686488616 7.377910835651994 -56.494239691617395 -1.2923128736213962 -0.9680976250476192 0.17914148519532283 7.466928637490573
-15.01789660744976 -6.393718175776289 13.877371190736694 -5.08621445226459 8.484765840291411 -1.3604844978668835 -4.138989770576866 -0.5845726945497901
0.36041917846143084 3.4726550795368913 -15.38598546021966 1.4697601154810678 22.45161395854474 39.04661248200602 -2.57757254951642 105.10225599800837
-4.0254903778440365 -1.1395913952217522 -0.7288995595146268 2.2951690158342224 10.85342498313436 13.658993995034638 -15.669083786491381 -11.129543067864564
0.1980740532589376 -6.380032477809784 -2.5563083863716645 -0.3749353019968732 0.03669532973715646 -7.934511331194297 -1.81168603117968 -3.544899715452562
-0.5344427751045221 3.352383783057784 0.9323412252962548 4.217231508531788 4.772452179392847 -0.3074189281531024 -0.01023920431348522 8.91282901629065
15.37489945672155 12.718718839100433 -27.384766697154006 11.228878881599762 6.716028312277122 -2.3791790067684375 -5.032963280274002 0.18678186366347507
-0.3530228260144538 -3.245213131867982 -23.72524734501372 -21.465427875691184 36.09796984801867 -9.77639941577121 -3.582270854685014 3.149447586929098
0.7039441087756054 -0.014539337343234246 -0.21327074538284443 0.12019065599365535 15.417133424145888 9.452928905404637 -17.049122124555577 9.811729214353587
-12.450109489277365 3.8374431063215333 -4.973089746499104 -0.37374694631008826 0.035063626167255224 5.7377105953578225 -16.304858119513778 -11.743036563525404
23.171923600114205 -19.298130448159945 10.8620608145647 -0.9167886382696977 4.069604917416769 -0.31833451802585655 -0.003380691094033994 2.329451246977003
-6.8808363683533385 1.4609562309508242 -3.054383825753546 17.025273725670253 0.7577031506462815 -11.704693328546579 0.432047609537167 -0.11791081068007253
-0.14168730457131584 -16.696208480801204 -7.928561877496949 -25.549727887809162 39.514636609103896 3.576911751708659 -17.506304904355126 9.168622225670399
3.9218503814691767 -0.5181295911527692 0.13398757582117912 5.314840303101152 18.195453108683733 8.169592553080893 -14.37791702155157 -29.828938901819605
15.989801777473017 4.250620359551436 4.724211590459597 -0.3488643511241895 0.017095917580739833
