hw2/model.npy (npy, 936 bytes, 1 tensors)

array f8 [107]
-0.5793417392293823 1.8485032610065393 1.0296323743430027 0.8396446878739459 26.32370974961186 2.746932638566987 2.8471481311543068 0.08055680247211208
-0.593739960309512 -4.739638789535019 -0.41451109914117973 -0.23580859981914887 -0.8972598801701961 -0.7250364343886642 -6.26403789858405 -0.8999310181933802
-1.624509600610648 -1.5185872573867285 -1.1184271298396449 -2.1519152681066336 -1.8539464042956293 -2.0836160651590023 -1.8225356420585892 -0.290033073127823
-0.2703711036056886 0.30548152711496673 1.3443814758034545 -0.8107261457793964 0.6584674981543334 -9.37154092879767 1.1508728186259345 -0.4685243560550873
-1.5293545830812048 0.7925430333781928 0.3198269360484422 -1.544664674679899 -2.0054455397701867 -1.6645878627822694 -1.408272109073872 -0.709998721181739
-1.8794219469151043 -0.6365497250296306 0.07044024137567205 -1.6856604454834152 -1.3864008121705553 -0.9889214033775655 -1.539584874593745 -4.054681795127446
-0.1959237536842994 -0.14342149164771822 -0.43068555903709455 -0.06180270114391624 -0.8192954963593981 -0.9160566680039849 -0.5624906830244126 -0.3330807311853112
-1.1141447878193556 -1.5195370401443913 -0.4754731499348127 0.7722711483598627 -1.0932445695210213 -0.4549526284066233 -0.7242841001998261 -0.9465759839787962
-0.5530957851812061 0.5531577585001338 -0.40290310006586405 -1.402962153439922 -2.827001893418076 -0.383832968314511 -2.5844573486541202 -1.0036712241523043
-1.287421571419761 -0.4058491542065056 -0.11230008316108789 -0.29483345369717806 -1.6435423552951112 -0.9699283321773736 -0.8078802223248817 -4.47578917652884
-2.0042757535614584 -0.8566161724633127 -0.8204709561846152 -1.0931477195522203 -0.6998843371732271 -0.18216381597737316 0.08114128967946561 -0.7100873278559299
-0.3290860270391096 -1.3515629729782364 -1.274392056115565 -1.5553834526464378 -6.044906846383434 -1.58529259023734 -0.30837822918888597 -0.7222062749710244
-0.7604122386501452 -1.0542199448235066 -0.7056280338003371 -1.7997603118302683 -0.7134973492451498 -1.3116824612184441 -1.1399834183144915 -0.5307594669651752
-1.8425571963482512 -0.046014960087484874 -0.9138132954422398
00000000: aa55 e6af f789 e2bf b528 c927 7893 fd3f
00000010: e24b ebcb 5f79 f03f 1eb8 5589 5ede ea3f
00000020: b3fa 63a4 de52 3a40 7cae b7d1 b7f9 0540
00000030: f266 7199 f5c6 0640 aa8a 16e0 5e9f b43f
00000040: 3772 fbf1 eaff e2bf ad9f efde 63f5 12c0
00000050: fffb a88f 5987 dabf aa5d 2be8 f92e cebf
00000060: fe00 2b5a 5ab6 ecbf ca72 c39b 7f33 e7bf
00000070: d04a 6df3 5f0e 19c0 547d 7922 3ccc ecbf
00000080: 7492 6ac7 fdfd f9bf c692 e926 224c f8bf
00000090: 3eed 99d8 13e5 f1bf 9e3f 225a 1f37 01c0
000000a0: cbc8 6fb4 c3a9 fdbf 9739 4ae6 3eab 00c0
000000b0: def9 2622 1b29 fdbf 7ee9 f5e0 e68f d2bf
000000c0: 6445 f199 c24d d1bf 396b 1f64 028d d33f
000000d0: ebc8 7e26 9682 f53f f04e 44f5 77f1 e9bf
000000e0: 5da8 416e 2a12 e53f 779f d49c 3abe 22c0
000000f0: dfa8 dd9d f969 f23f 33b5 a894 4dfc ddbf
00000100: d224 e582 3c78 f8bf ef05 2135 835c e93f
00000110: ef4e ad65 0b78 d43f 1a96 504e f2b6 f8bf
00000120: b2c6 f907 270b 00c0 7f7e ffe1 26a2 fabf
00000130: a875 c555 4888 f6bf 31ad f53c 4fb8 e6bf
00000140: 0c29 56bf 1c12 febf 38f6 6887 9d5e e4bf
00000150: 47e6 0725 5f08 b23f 6531 5816 77f8 fabf
00000160: dab9 369e b22e f6bf 3046 ba7f 3ea5 efbf
00000170: 0abe dcbf 23a2 f8bf 2b09 2781 fe37 10c0
00000180: 3db4 4a91 0714 c9bf 84d2 15ac a25b c2bf
00000190: 831f bb29 5a90 dbbf ea66 6f88 9aa4 afbf
000001a0: 5ef5 5330 ab37 eabf d983 cb12 5650 edbf
000001b0: 31a0 fc75 ecff e1bf 6f98 d7d7 3151 d5bf
000001c0: 7e16 2b7c 89d3 f1bf 5bb1 4712 0650 f8bf
000001d0: ea26 46ef 266e debf fd32 bbfb 71b6 e83f
000001e0: 4af5 8904 ee7d f1bf 8215 0fa1 f11d ddbf
000001f0: 90df 6bd9 552d e7bf 3ec6 cbb7 594a eebf
00000200: 3f14 9dee f5b2 e1bf fb2c 49e6 77b3 e13f
00000210: 8c5a 8f15 2ac9 d9bf 9dcd 6871 8872 f6bf
00000220: 8baf 2f2b b39d 06c0 3d65 8227 b890 d8bf
00000230: b202 73f9 f7ac 04c0 17ba ba8e 090f f0bf
00000240: d69a 965c 4799 f4bf e646 1bbb 6ef9 d9bf
00000250: f2d3 83c0 b2bf bcbf de59 5922 8dde d2bf
00000260: 4255 9911 f34b fabf f54c 4524 a709 efbf
00000270: f50e bf9f 27da e9bf b6ed 2347 35e7 11c0
00000280: a0b2 edb9 c108 00c0 478c be51 6669 ebbf
00000290: 472f 844e 4c41 eabf bfc7 9276 887d f1bf
000002a0: 6088 64d6 7365 e6bf ab95 11d8 2451 c7bf
000002b0: 2d50 87f1 acc5 b43f 7a3f 4e0f 09b9 e6bf
000002c0: ec06 edd6 be0f d5bf 21d1 f67e 00a0 f5bf
000002d0: dbc6 b4ec e863 f4bf 3db2 5dc2 d9e2 f8bf
000002e0: 5855 720f fc2d 18c0 6d91 5ac3 5b5d f9bf
000002f0: c189 4a0a 78bc d3bf d7ed 7e55 501c e7bf
00000300: 6d60 0f0c 4c55 e8bf 19ed 9cbb 15de f0bf
00000310: fc05 0a3e 8194 e6bf 3c32 ff77 d1cb fcbf
00000320: ab4c 9964 f8d4 e6bf 58b8 9abf a6fc f4bf
00000330: d849 ba40 5f3d f2bf dc0c 1547 fbfb e0bf
00000340: fa33 3541 1d7b fdbf 24ad 67d9 458f a7bf
00000350: 8861 5261 f53d edbf
