hw2/model_sqr.npy (npy, 984 bytes, 1 tensors)

array f8 [113]
-0.652203211373016 5.826121315130422 1.3576411290060135 0.43227110318220413 30.09651139871995 0.9749102747074077 3.9925811069893036 -0.010814106573247226
-0.6812943903078574 -5.677516819694528 -0.4922281402482605 -0.2856492372280853 -0.9408716440673093 -0.8140661550774033 -7.114042463081075 -0.9103997832767116
-1.659175543137743 -1.5723951141726848 -1.1988057185367211 -2.189366117759958 -1.888691628168565 -2.0792619848732894 -1.8490247719652486 -0.37405802705733127
-0.36080571165283837 0.22903458838167992 1.3069036345049105 -0.8770403422210261 0.5793112634396538 -14.13470138746027 1.1054086034008175 -0.5354394276593226
-1.8279623410808785 0.9455319347465719 0.3410947244848802 -1.8148542139562744 -2.2454465834933854 -1.970832261225822 -1.562750083140224 -0.7864291973916179
-1.9472958484433038 -0.7327480673254226 0.0008368005604276249 -1.6938323788930723 -1.4620624525209733 -1.0859899481457915 -1.5931059702017496 -4.803347600199936
-0.27241569715741754 -0.18562115269250315 -0.4909819634282996 -0.14006839273542504 -0.8829871658555424 -0.9291622117387259 -0.7402481109151137 -0.2133526524108387
-1.119794889260756 -1.400300912383588 -0.3758653830895677 0.6080306418443382 -1.2044532895883546 -0.5280385336473407 -0.8175308014398651 -1.0280120521711085
-0.6234958939226528 0.43402007990497404 -0.4620825014647006 -1.5188685380014173 -2.866392549607324 -0.43855688100073936 -2.6231060333862146 -1.0591708965185087
-1.4277590447175914 -0.46081133811764846 -0.22197242456730262 -0.36999900786949214 -1.7482448347446584 -1.0577761699865156 -0.8621741632215761 -5.23638578577978
-2.0563663899568985 -0.9101425417276854 -0.8200656842855869 -1.1907723397845964 -0.7791789447720824 -0.21326204885861116 -0.009761274094605994 -0.7782854438734947
-0.4256932385768385 -1.4017132198695528 -1.364473729470589 -1.591291556368325 -6.935736044060481 -1.6368176430919672 -0.38823843966305316 -0.7574597305133913
-0.825954602791423 -1.1684281152778948 -0.8290270703275432 -1.8472998893811858 -0.7787611472101013 -1.2849546883969523 -1.2056751928788818 -0.6028709255581233
-1.9209794351520992 -0.1233601357389759 -0.9890672764492459 -4.866821326114176 -1.0808340377046253 0.43227110318220413 9.452489421087899 3.857792938721228
-1.5853357048886765
00000000: 572f e644 d9de e4bf 000e fcbe f24d 1740
00000010: c690 8ce7 e5b8 f53f 1f19 cb6a 54aa db3f
00000020: 8331 95f8 b418 3e40 dae2 4c08 7732 ef3f
00000030: 1b2c 095d cef0 0f40 855a 8ad0 b425 86bf
00000040: 9841 aae4 29cd e5bf cc4f 1cf8 c6b5 16c0
00000050: 2961 2275 aa80 dfbf fd67 01bd 1348 d2bf
00000060: 5017 a0d9 9e1b eebf 2cd0 1a77 d40c eabf
00000070: 6e27 258c c774 1cc0 d5af eeb9 fe21 edbf
00000080: 2498 81a7 fb8b fabf 9c30 7cc7 8728 f9bf
00000090: cdf7 b5e7 4e2e f3bf fcfe 1562 d283 01c0
000000a0: 5d68 73b6 1438 febf 4cc6 861b 54a2 00c0
000000b0: 865a d1ff 9a95 fdbf 101f 4114 91f0 d7bf
000000c0: 9692 f0d6 7017 d7bf 0546 6061 0151 cd3f
000000d0: d68d 13c9 13e9 f43f 2395 63e8 b610 ecbf
000000e0: 28b0 55c6 b789 e23f 41bc 8b94 f744 2cc0
000000f0: 3e2d 85ee c0af f13f da24 d9dd 5122 e1bf
00000100: 0831 9470 553f fdbf 9bec 2130 cc41 ee3f
00000110: 520b a0f7 7ed4 d53f 2433 7f92 a409 fdbf
00000120: f626 c8b2 acf6 01c0 bcdd bd68 8788 ffbf
00000130: 6489 2e3b 0601 f9bf 3154 6d90 6d2a e9bf
00000140: 8135 0bb1 1f28 ffbf 31d6 2b13 ac72 e7bf
00000150: 31ea 2885 976b 4b3f a906 04fb ef19 fbbf
00000160: 1998 2499 9b64 f7bf 7322 f1fe 3660 f1bf
00000170: 0843 91af 5c7d f9bf 19b7 d8c0 a036 13c0
00000180: 4e52 8d3f 426f d1bf b94b 2116 6fc2 c7bf
00000190: 326d f69c 3f6c dfbf 643f 00d7 c2ed c1bf
000001a0: 9e64 044d 6e41 ecbf 7019 0364 b2bb edbf
000001b0: 57cc 69ce 1cb0 e7bf c148 4fc4 234f cbbf
000001c0: 6fa5 b90b aeea f1bf 8cf1 f3ed a167 f6bf
000001d0: 775d 04ae 2d0e d8bf 8afe 35ad fc74 e33f
000001e0: 3277 05d0 7045 f3bf 4561 2111 b1e5 e0bf
000001f0: 3f05 f55a 3629 eabf 0780 ffc3 bc72 f0bf
00000200: 8bd1 32a9 adf3 e3bf 68f2 3f28 fcc6 db3f
00000210: 9110 f67b c292 ddbf 113b 9a18 494d f8bf
00000220: fb7d 9037 5fee 06c0 435f 55e1 5011 dcbf
00000230: 30ac 1a04 1ffc 04c0 7ec0 962e 5df2 f0bf
00000240: 8815 3ade 19d8 f6bf d5d7 b5d6 ee7d ddbf
00000250: adb0 10a8 9769 ccbf c885 9651 10ae d7bf
00000260: 5611 6a93 cff8 fbbf 9648 89b4 a6ec f0bf
00000270: 4fc5 4f45 ee96 ebbf 57a7 8c1d 0ff2 14c0
00000280: eeaa cb38 7073 00c0 3066 6d40 e31f edbf
00000290: b882 d263 fa3d eabf 2ab3 054c 670d f3bf
000002a0: 6de4 b0ae 08ef e8bf 2eb0 a9ba 2b4c cbbf
000002b0: 6a6c 0708 b8fd 83bf d076 0ce0 b6e7 e8bf
000002c0: d636 74da 8e3e dbbf 905e 5bd7 6a6d f6bf
000002d0: c03c c567 e2d4 f5bf dd0b 9022 ee75 f9bf
000002e0: 75b6 eb96 31be 1bc0 6588 69b2 6730 fabf
000002f0: d4c8 590a e6d8 d8bf 93f1 5230 1c3d e8bf
00000300: dd08 df58 386e eabf 1287 edad e1b1 f2bf
00000310: 93c6 51c7 6387 eabf ebbe 2c54 8a8e fdbf
00000320: e035 557f 9ceb e8bf c61b b8a5 2c8f f4bf
00000330: 6f36 3012 724a f3bf 8c67 9ff7 b74a e3bf
00000340: e444 a4ee 54bc febf 9b07 a1a4 8794 bfbf
00000350: ee95 bc6a 70a6 efbf ff8a 7c02 a077 13c0
00000360: 1b85 c5a1 184b f1bf 1f19 cb6a 54aa db3f
00000370: 8db7 82b1 ace7 2240 1761 548b c2dc 0e40
00000380: fad8 daf8 885d f9bf
